src/experiments/autoencoder/model.pt (torch, 632287 bytes, 4 tensors)

enc.weight f4 [100, 784]
0	0x35dc92b6	1.6433976e-06
1	0x35992157	1.1409091e-06
2	0x35b0194f	1.3120388e-06
3	0x35fcdfc1	1.8840584e-06
4	0xb4f6f753	-4.6001023e-07
5	0xb62b6c33	-2.5543966e-06
6	0x358b7bde	1.0392357e-06
7	0x35bc3ab8	1.4024181e-06
8	0xb5887943	-1.0168081e-06
9	0xb5e160f8	-1.6792028e-06
10	0xb6041154	-1.967962e-06
11	0x35018f57	4.826483e-07
12	0xb52d2983	-6.450793e-07
13	0xb6136484	-2.1963215e-06
14	0x354c755b	7.6166697e-07
15	0xb5c2df3e	-1.4519098e-06
16	0x36146b69	2.211624e-06
17	0x35dd59de	1.6491938e-06
18	0xb56abd61	-8.7447376e-07
19	0xb62feb46	-2.621398e-06
20	0x34e26caa	4.2174844e-07
21	0xb62fa6b3	-2.6174064e-06
22	0x350cd5f6	5.246542e-07
23	0x357d8c9b	9.445445e-07
24	0x33ae0e62	8.1051226e-08
25	0x35f81f17	1.8486488e-06
26	0xb55ff4c5	-8.343016e-07
27	0xb59c69ef	-1.1653736e-06
28	0xb5711fed	-8.9825954e-07
29	0xb5102a11	-5.3705395e-07
30	0x35ed8921	1.7697786e-06
31	0x36334934	2.6715688e-06
32	0x35d33640	1.5736514e-06
33	0xb4e9a6b3	-4.3520922e-07
34	0xb619ed9c	-2.2937083e-06
35	0xb58fd5de	-1.0716574e-06
36	0x36411664	2.8772274e-06
37	0xb51da1ad	-5.8722327e-07
38	0x3604999e	1.975895e-06
39	0xb5703721	-8.948719e-07
40	0x35b623fe	1.3570532e-06
41	0xb639c55e	-2.768203e-06
42	0xb5df99da	-1.6659571e-06
43	0x3438beac	1.7205701e-07
44	0x3644bf89	2.9317764e-06
45	0xb60f17c5	-2.1322496e-06
46	0x359a400e	1.1492536e-06
47	0xb632e188	-2.6655343e-06
48	0x358eea30	1.0647982e-06
49	0xb63873ec	-2.7485612e-06
50	0xb5e607dd	-1.7138624e-06
51	0x3611878b	2.168558e-06
52	0xb4a22def	-3.0208273e-07
53	0xb5a00e33	-1.1925061e-06
54	0xb5d1c199	-1.5628058e-06
55	0xb6393540	-2.7598144e-06
56	0x35e43227	1.700192e-06
57	0x362f5d9c	2.613152e-06
58	0x3419cfc2	1.4324817e-07
59	0x3559fbb9	8.1205104e-07
60	0x36162ec9	2.2378974e-06
61	0x35eb2b25	1.7521421e-06
62	0x35cda85b	1.5322688e-06
63	0x34092190	1.2771329e-07
64	0xb5e51721	-1.7068561e-06
65	0xb60396c4	-1.9608278e-06
66	0xbb4a3af0	-0.0030857883
67	0xbbd7bfae	-0.0065841293
68	0xbb57d515	-0.0032933403
69	0xbafa28fe	-0.0019085703
70	0xba7a52b2	-0.0009549066
71	0xbae31fdd	-0.0017328222
72	0xb96bcfe1	-0.00022488787
73	0x35e4f980	1.7059938e-06
74	0xb61fbff1	-2.380457e-06
75	0xb63646d2	-2.7161336e-06
76	0xb5b8591f	-1.3735006e-06
77	0xb62dcbc8	-2.5897625e-06
78	0x3560df26	8.3771226e-07
79	0xb5b0efcd	-1.3182813e-06
80	0x357d2cd2	9.4315067e-07
81	0xb62f6535	-2.6135942e-06
82	0x34d1f686	3.9108653e-07
83	0x35950973	1.1104115e-06
84	0xb49340be	-2.742799e-07
85	0xb51ee07e	-5.9186266e-07
86	0xb5c0e43f	-1.4371543e-06
87	0x35bbf7c2	1.4004693e-06
88	0xb587c9ba	-1.0116994e-06
89	0xb604fc02	-1.981622e-06
90	0x34d86cdd	4.0312344e-07
91	0x349d11c2	2.925645e-07
92	0xb5bd8459	-1.4120116e-06
93	0xb5eb073e	-1.7510972e-06
94	0xbb80d8d4	-0.003932098
95	0xbbc0f7c8	-0.005888913
96	0xbad9cca3	-0.0016616773
97	0x37569798	1.279069e-05
98	0xb9ef5372	-0.00045647804
99	0x3bacc42b	0.0052724085
100	0x3b64d508	0.0034917016
101	0xba64a9fd	-0.000872284
102	0x35e6424b	1.7155629e-06
103	0xb5bce118	-1.4072602e-06
104	0x35b777c2	1.3669417e-06
105	0xb62b5f31	-2.5536394e-06
106	0xb6203025	-2.3869882e-06
107	0x35cea46c	1.5396049e-06
108	0x361c321f	2.3274986e-06
109	0x36060e0f	1.997574e-06
110	0x360ebc67	2.1269313e-06
111	0xb63d4177	-2.82013e-06
112	0xb5aec5db	-1.3021594e-06
113	0xb5cdcf7d	-1.5334077e-06
114	0x35e89352	1.7328223e-06
115	0x35f34d34	1.812738e-06
116	0xb61c86aa	-2.3324196e-06
117	0x362a2158	2.5351383e-06
118	0xb5af22e3	-1.3048669e-06
119	0x35d4929e	1.5837902e-06
120	0xb60a8592	-2.064135e-06
121	0xb987522c	-0.0002581043
122	0xbba07d27	-0.004897732
123	0xbb69daa0	-0.003568329
124	0x3a4fef86	0.0007932115
125	0xb9bd7eed	-0.00036143456
126	0xbb747bd2	-0.0037305248
127	0x3a0723e9	0.00051551923
128	0xbc20f902	-0.009824993
129	0xbb84e195	-0.004055212
130	0xbb807350	-0.0039199963
131	0xbbb65227	-0.0055639925
132	0x3b6ec63c	0.0036434075
133	0xb9601d92	-0.0002137332
134	0x35e63547	1.7151841e-06
135	0xb5a30026	-1.214449e-06
136	0xb5d2fc47	-1.5719642e-06
137	0xb5bc14d4	-1.4013153e-06
138	0xb5286549	-6.2732266e-07
139	0x362360cb	2.4345234e-06
140	0x3532b112	6.656784e-07
141	0xb4514615	-1.9490138e-07
142	0x35d5ff61	1.5944062e-06
143	0x3640d7da	2.8735872e-06
144	0x35cfa69b	1.547119e-06
145	0xb5d34013	-1.5739373e-06
146	0xb598ef65	-1.1394555e-06
147	0xb9d01692	-0.00039689668
148	0x3a2b31ca	0.00065305515
149	0xbaea47fb	-0.0017874235
150	0xbbed2698	-0.0072372667
151	0x3b3dd14e	0.0028963867
152	0x3ba0344f	0.004889048
153	0xbb7a38e6	-0.0038180887
154	0x3a8b8a32	0.0010646044
155	0xbc983431	-0.018579574
156	0x3c1b4635	0.009477188
157	0x38e222de	0.00010783014
158	0xbc2dd678	-0.010610215
159	0xba306f8b	-0.00067304884
160	0x37e51675	2.7309385e-05
161	0xba7728c5	-0.00094283774
162	0xbb8cc734	-0.004296208
163	0x3562506e	8.43086e-07
164	0xb5dba198	-1.6363801e-06
165	0x3631fd85	2.6522623e-06
166	0xb6174789	-2.2542392e-06
167	0xb4648f1f	-2.1286222e-07
168	0x36175a08	2.2553158e-06
169	0xb5f65bf5	-1.8355191e-06
170	0xb5f9e1f4	-1.8617707e-06
171	0x3934f7c7	0.00017258442
172	0x3abc26ce	0.0014354826
173	0x3aaabd14	0.001302632
174	0x39d55527	0.0004068997
175	0xbb580ab2	-0.003296536
176	0xbb5d6fa1	-0.003378846
177	0xb965d34a	-0.00021917853
178	0xbbd1ed18	-0.0064064376
179	0xbb3ce4a7	-0.002882281
180	0xbb99ac96	-0.0046897633
181	0xbb7bf121	-0.0038443285
182	0xbb222d82	-0.0024746363
183	0xbc9f91cb	-0.0194787
184	0xbca196f0	-0.019725293
185	0xbbf86107	-0.007579926
186	0xbc30fc0b	-0.010802279
187	0xbc0b128b	-0.008488308
188	0xbb0f1925	-0.0021835056
189	0xbba53153	-0.0050412803
190	0xbba5a1d5	-0.0050546923
191	0xb5c1b448	-1.4432089e-06
192	0xb62603e0	-2.4738183e-06
193	0x35cf2a87	1.5435079e-06
194	0x36274d43	2.4929911e-06
195	0x35518574	7.8052767e-07
196	0x363e2548	2.8333907e-06
197	0x35c9c7b6	1.503379e-06
198	0xb4a448cc	-3.0600347e-07
199	0x39864ec1	0.00025617148
200	0x3abf223d	0.0014582347
201	0x3a97f214	0.0011592531
202	0xb9f84b33	-0.00047358274
203	0xbb13207d	-0.0022449784
204	0xbae37a63	-0.00173552
205	0xbac48641	-0.0014993624
206	0xbba5d889	-0.0050612134
207	0xbb8ccfb0	-0.004297219
208	0x3ad14999	0.0015967368
209	0x3a95b783	0.0011422489
210	0xbc7b6eda	-0.015346253
211	0x3c3d43d2	0.011551814
212	0xbcba0f12	-0.022712264
213	0xbc0b9efe	-0.008521793
214	0xbb5c2e26	-0.0033596843
215	0xbb95b563	-0.004568742
216	0xbafb4dbe	-0.0019172949
217	0xbbf8b7ec	-0.0075902846
218	0xbb3fcdf7	-0.0029267052
219	0xbad9ba86	-0.0016611374
220	0xb91bb1f5	-0.00014848246
221	0xb95daf68	-0.00021141546
222	0x3640b4b0	2.8715403e-06
223	0x3581ff05	9.685469e-07
224	0x361f0b19	2.3699306e-06
225	0x35e32f56	1.6926595e-06
226	0xb55b4f99	-8.169969e-07
227	0x33930595	6.846236e-08
228	0x39186352	0.0001453285
229	0x3983ae64	0.00025116198
230	0x3a96c596	0.0011502977
231	0x3a9c85b9	0.0011941708
232	0x3b224544	0.0024760524
233	0xbaa7e5f5	-0.0012809621
234	0xbbddf945	-0.0067741
235	0xbad7c373	-0.0016461447
236	0xb9394109	-0.00017667202
237	0xbc7d288f	-0.015451564
238	0xbc250015	-0.01007082
239	0xbc289cc9	-0.010291287
240	0xba96a123	-0.0011492114
241	0x3adc2985	0.0016797042
242	0x3b4f4f7f	0.0031633077
243	0xbb84601a	-0.0040397765
244	0xbc2d61c1	-0.010582388
245	0xbb42ee28	-0.0029744003
246	0xbb620eda	-0.0034493716
247	0xbb6578ac	-0.0035014553
248	0xba303f30	-0.0006723283
249	0xba3760fe	-0.0006995349
250	0xb62c3d4a	-2.5665672e-06
251	0xb55ff810	-8.343495e-07
252	0xb4c7e85b	-3.72357e-07
253	0xb6148eb5	-2.2136785e-06
254	0x3589e0a2	1.0272672e-06
255	0x35bbef80	1.4002289e-06

enc.bias f4 [100]
0	0x3bf7510e	0.0075475043
1	0x3c424bb7	0.011858872
2	0x3ec654cb	0.38736567
3	0x3f3d8e14	0.7404492
4	0x3e2bdd47	0.1678363
5	0x3e9b34d4	0.30313742
6	0x3d00a45d	0.03140675
7	0x3fbe3b3b	1.4861826
8	0x3cc11984	0.023571737
9	0x3f1b6e7e	0.6071547
10	0x3fc8902a	1.5668995
11	0xbf19f58a	-0.6014029
12	0xbcbc95d6	-0.023020666
13	0xbca01e37	-0.019545658
14	0xbc435f06	-0.011924511
15	0x3fdc67b5	1.7219149
16	0x3c866c3e	0.016409036
17	0xbfa6c2ee	-1.3028238
18	0xbe6fbeda	-0.23412648
19	0x3ebc7582	0.368084
20	0xbf18f809	-0.5975347
21	0x3fa42dca	1.2826474
22	0x3ec621a2	0.38697535
23	0x3c28c74f	0.010301425
24	0x3e7ea939	0.24869241
25	0xbf140322	-0.5781728
26	0x3f8771d1	1.0581609
27	0x3f2c1ce9	0.67231613
28	0x3f547f8c	0.8300712
29	0x3fbf2708	1.4933786
30	0x3faabae5	1.3338286
31	0x3f0f8842	0.5606729
32	0xbc8bf31a	-0.017083693
33	0xbdc929fc	-0.09822461
34	0x3e6ce1d6	0.23133025
35	0xbf345041	-0.7043496
36	0xbf941a45	-1.1570517
37	0x3fe983d8	1.824336
38	0xbdc121b6	-0.09430258
39	0x3e5f7bb0	0.21824527
40	0x3ff47a7b	1.9099878
41	0xbfbe184e	-1.4851167
42	0xbf19d55e	-0.600912
43	0x3d7c75e3	0.061635863
44	0x3fc3074d	1.5236603
45	0x3f803ea4	1.0019116
46	0x3c88f6cd	0.016719246
47	0x3f70c137	0.9404482
48	0xbefb55bb	-0.49088845
49	0x3fc2ea1a	1.5227692
50	0x3e54211f	0.2071576
51	0xbd930156	-0.07177989
52	0x3f504e7b	0.8136975
53	0x3f80c038	1.005866
54	0xbd77f1ee	-0.060533457
55	0x3e9b632e	0.30349106
56	0x3fd116e6	1.6335113
57	0xbc8913d1	-0.016733082
58	0x3eb9dfca	0.3630355
59	0x3f9e8660	1.2384758
60	0x3fb7c5d3	1.4357246
61	0x3fa3a5f6	1.2785022
62	0xbe57f56d	-0.21089716
63	0x3ef4f7f1	0.47845414
64	0xbf789354	-0.97099805
65	0x3f3247e4	0.69640946
66	0x3fb88776	1.4416339
67	0xbf25857d	-0.6465681
68	0x3f6b19a8	0.91836023
69	0x3f9b46b9	1.2130958
70	0xbf570d2b	-0.8400447
71	0x3f2e39ee	0.68057144
72	0x3ff88ed3	1.9418586
73	0x3fd51651	1.6647435
74	0xbf1a2400	-0.6021118
75	0x3f2fd41c	0.6868303
76	0x3e0f0dd3	0.13970117
77	0x3fb58c31	1.4183408
78	0x3f811dd1	1.0087224
79	0xbecd8e92	-0.40147835
80	0x3f6bb43b	0.92071885
81	0x3f387699	0.72055966
82	0x3f616553	0.88045233
83	0xbccff776	-0.025386553
84	0x3e2c2d75	0.16814215
85	0x3f7b5e02	0.9819032
86	0xbd04c53f	-0.03241467
87	0x3e6c02ec	0.2304799
88	0xbca95388	-0.020669714
89	0xbfada461	-1.356579
90	0xbb9ae61f	-0.0047271396
91	0xbe9251d0	-0.28578043
92	0x3fb74c88	1.432023
93	0x3f898621	1.0744058
94	0xbe61ef2e	-0.22063896
95	0xbf02082f	-0.5079374
96	0xbe71e385	-0.23621948
97	0xbf1d1935	-0.6136659
98	0xbe22df13	-0.15905409
99	0x3f3aab90	0.72918034

dec.weight f4 [784, 100]
0	0x3937cf01	0.00017529355
1	0xbcb39c21	-0.021925034
2	0xba81ec2a	-0.0009912301
3	0x3b820967	0.003968406
4	0x3d477c9a	0.048702814
5	0xbd8b9c87	-0.068169646
6	0x3ca9090b	0.020634195
7	0xbce4410e	-0.027863052
8	0x3b389fdf	0.0028171462
9	0xbc2f045b	-0.010682191
10	0xbcd3fa10	-0.025876075
11	0x3c2992a9	0.010349908
12	0x3b8547b8	0.0040673874
13	0xbb23611d	-0.002492971
14	0x3c86ade3	0.016440338
15	0xbd5b354e	-0.053517632
16	0xbdcf579f	-0.10124134
17	0xbd2716db	-0.04079328
18	0xbba8d163	-0.005151914
19	0x3d2004dc	0.039067134
20	0xbd8c882e	-0.06861912
21	0xbda8a864	-0.08235243
22	0x3c9920b4	0.018692352
23	0xbb25ee47	-0.0025319026
24	0xbc88cfa3	-0.016700571
25	0xbd4e50f8	-0.050370187
26	0xbd0200b0	-0.031738937
27	0xbcbd6df4	-0.023123719
28	0xbdb0e62d	-0.086376525
29	0x3c361ef9	0.011115783
30	0xbc71ba5b	-0.014753903
31	0xbd2834ed	-0.0410661
32	0x3cc2977c	0.023753874
33	0x3b04cc86	0.0020263507
34	0xbba15377	-0.00492328
35	0x3d337b22	0.0438186
36	0xbcda70a7	-0.026665045
37	0xbc945f2d	-0.01811179
38	0xbd60a3c9	-0.054843698
39	0x3c0348dd	0.008012977
40	0xbcd60d18	-0.02612929
41	0xbd113cb0	-0.035458267
42	0xbd6257b8	-0.055259436
43	0xbd398433	-0.04529209
44	0xbd87d7e5	-0.066329755
45	0xbd9b0c33	-0.07570686
46	0xbb40e07b	-0.0029430676
47	0xbd8c49a1	-0.06849981
48	0xbd76cb13	-0.06025226
49	0x3c866711	0.016406568
50	0xbdd3cae8	-0.10341436
51	0x3ca66b1d	0.020314747
52	0xbde793b8	-0.11307472
53	0xbd52fede	-0.05151259
54	0xb82fb1bc	-4.188878e-05
55	0xbd06442c	-0.032779858
56	0xbcc438f9	-0.023952948
57	0xbb98a0f4	-0.004657859
58	0xbd6a009a	-0.05712948
59	0xbddc9460	-0.10770488
60	0xbccb859c	-0.024843983
61	0xbcedae59	-0.0290138
62	0xbdad7b59	-0.08470792
63	0xbd33f405	-0.043933887
64	0xbd93c4e7	-0.072152905
65	0xbc58d58b	-0.013234506
66	0xbc2070b7	-0.009792498
67	0xbce34754	-0.027743973
68	0xbcf0408b	-0.029327651
69	0xbd279b17	-0.04091939
70	0x3d0f57d1	0.034995858
71	0xbde19ecb	-0.110166155
72	0xbd03bc37	-0.032161918
73	0xbd2b32a4	-0.04179634
74	0xbd3c4d68	-0.045972258
75	0x3d22c048	0.039734155
76	0x3bbba8ce	0.00572691
77	0xbd718b3c	-0.058970675
78	0xbd2283fb	-0.039676648
79	0xbd871d42	-0.06597377
80	0xbbc5613f	-0.0060235555
81	0xbc574e11	-0.013141171
82	0xbd585580	-0.052815914
83	0xb9e35b42	-0.00043364806
84	0xbb8ff748	-0.004393492
85	0xbde71fcd	-0.112853624
86	0xbb408a19	-0.0029379188
87	0xbddacf95	-0.106841244
88	0xbb6148af	-0.0034375598
89	0xbc21cf2f	-0.009876057
90	0x3d1cc53b	0.03827403
91	0xbc88ed32	-0.016714666
92	0xbcdb871d	-0.026797825
93	0x3cf6b888	0.030117288
94	0xbdd1096e	-0.10206877
95	0xbde0c8ac	-0.10975775
96	0xbc9ccd37	-0.019140823
97	0x3c2a09f0	0.010378346
98	0xbd71a053	-0.058990788
99	0xbdc6f355	-0.09714381
100	0x3aea18ea	0.0017860208
101	0x3cc743b8	0.024324283
102	0xbc8c0ae8	-0.017095044
103	0xbd85ff83	-0.065428756
104	0xbd8b677d	-0.06806848
105	0xbddda18f	-0.108218305
106	0xbd49d2a1	-0.049273137
107	0xbdd3a8a5	-0.10334901
108	0x3bf8221b	0.007572425
109	0xbcc2c152	-0.023773823
110	0xbd961de9	-0.07329924
111	0xbd839a4b	-0.064259134
112	0xbba87652	-0.005141058
113	0x3aed9aca	0.0018127796
114	0xbc785790	-0.015157595
115	0xbd0b06e7	-0.03394213
116	0xbdd23789	-0.10264499
117	0xbd481fff	-0.04885864
118	0x3c1369be	0.008997379
119	0xbdab2b9a	-0.08357926
120	0x3c8e0244	0.017335065
121	0xbd911dab	-0.07085737
122	0xbd4de0c4	-0.05026318
123	0x3ae436f1	0.0017411393
124	0xbb84f1e6	-0.004057157
125	0xbcddee47	-0.027091159
126	0x3ba74d05	0.005105617
127	0xbd8af5dd	-0.06785176
128	0xbdb90f50	-0.09036124
129	0x3d194a75	0.037424523
130	0xbc69bc4c	-0.014266085
131	0xbd1afbed	-0.03783791
132	0xbcb448c3	-0.022007352
133	0x3d40f147	0.0471051
134	0xbc6d731e	-0.014492778
135	0xbc82933e	-0.015939351
136	0xbcd4c9ad	-0.025975073
137	0xbc0a653e	-0.00844699
138	0xbd1759b8	-0.036950797
139	0x3c6e8176	0.014557233
140	0xbca088de	-0.019596513
141	0xbced3477	-0.028955681
142	0xbd1dd92b	-0.038537186
143	0xbd92143d	-0.071327664
144	0xbcce0540	-0.025148988
145	0xbd38fe85	-0.045164604
146	0x3b591ba1	0.003312804
147	0xbd3c76f5	-0.046011884
148	0x3d1ae698	0.037817568
149	0xbd91e072	-0.07122888
150	0x3d61cd6e	0.055127554
151	0x3ba88e45	0.005143913
152	0x3d396138	0.04525873
153	0xbcf88136	-0.03033505
154	0xb83ddaaa	-4.526476e-05
155	0xbc963568	-0.018336013
156	0xbc852d38	-0.016256914
157	0xbcca87fe	-0.02472305
158	0xbd99fee6	-0.07519321
159	0x3d26269b	0.04056416
160	0xbb0e896d	-0.0021749393
161	0xbd08e7d2	-0.033424206
162	0xbcdbc5e2	-0.026827756
163	0xbdcfafc6	-0.10140948
164	0xbd8203ce	-0.06348382
165	0x3d1a33f9	0.03764722
166	0xbb1361d4	-0.002248873
167	0xbcb2de93	-0.021834647
168	0xbd5860ae	-0.052826576
169	0xbdd58c17	-0.10427111
170	0xbda0a8e4	-0.07844713
171	0xbdcc90af	-0.09988534
172	0xbcc7a585	-0.024370918
173	0xbd4090e0	-0.047013164
174	0xbda6aa0a	-0.08137901
175	0x3d5c475e	0.053779
176	0x3c8a83de	0.016908582
177	0xbd45635b	-0.048190456
178	0xbd611221	-0.05494893
179	0xbd806ffe	-0.06271361
180	0xbc98f945	-0.018673548
181	0xbdb070ec	-0.08615288
182	0xbc2cce72	-0.010547267
183	0xb8ab3223	-8.163254e-05
184	0xbd3acf4d	-0.045607854
185	0xbd8f5079	-0.06997771
186	0x3b49ffd7	0.0030822658
187	0xbd9c1371	-0.07620896
188	0x3a6c6f85	0.0009019303
189	0xbad2be1e	-0.0016078388
190	0xbcee27a5	-0.029071638
191	0x3c1018cc	0.008794975
192	0xbdb14e1e	-0.08657478
193	0x3aef5465	0.0018259404
194	0x3ca3fdf1	0.02001855
195	0xbdc1fee0	-0.09472442
196	0xbd1f0c6f	-0.038830217
197	0xbdb1ae38	-0.08675808
198	0xbd4ebb97	-0.05047187
199	0xbc27e664	-0.0102478005
200	0x3a6d2cee	0.00090475276
201	0xb906968d	-0.0001283532
202	0xbd98814d	-0.07446537
203	0xbdc701bd	-0.097171284
204	0xbd305fb3	-0.043060016
205	0xbdc3ace6	-0.09554462
206	0x3d0042c8	0.031313688
207	0x3c01397f	0.007887243
208	0x3bf3a6c5	0.007435652
209	0xbd1f5254	-0.038896874
210	0xbc83c98a	-0.016087312
211	0xbd6dbcd9	-0.058041427
212	0xbb684fb3	-0.0035447895
213	0xb9fd0507	-0.00048259666
214	0x3baa57ca	0.0051984536
215	0xbd913b33	-0.070913695
216	0xbcbd25dc	-0.023089342
217	0x3b9d15a4	0.0047938395
218	0xbdb7e83f	-0.08979844
219	0xbcded57c	-0.027201407
220	0xbdd511c8	-0.10403782
221	0xbd0b29db	-0.033975463
222	0x3d35ad24	0.044354573
223	0xbad58163	-0.0016289171
224	0xbc05ca00	-0.008165836
225	0xbe032630	-0.12807536
226	0x3d1f71de	0.03892695
227	0xbd9769e4	-0.07393244
228	0x3d2417af	0.04006165
229	0x3c276bea	0.0102186
230	0xbccb3c56	-0.024809044
231	0xbd8ab91d	-0.06773589
232	0x3cddc9d8	0.027073786
233	0xbcccfc2e	-0.025022592
234	0xbca0e44a	-0.019640107
235	0xbcc2ebe7	-0.023794128
236	0xbc8e077a	-0.01733755
237	0xbd9259b9	-0.071460195
238	0x3d486421	0.048923615
239	0xbdd66d84	-0.10470107
240	0xbc7e703d	-0.015529689
241	0xbda288b1	-0.07936228
242	0xbcd1bde7	-0.025603248
243	0x3b9f9ea7	0.0048712078
244	0xbd37c99e	-0.04487001
245	0xbcd57b57	-0.02605979
246	0x3b59f1d2	0.0033255708
247	0xbdedaf93	-0.11605754
248	0xbdc30c75	-0.0952386
249	0xbdf9d349	-0.121985026
250	0xbd9c5d2b	-0.07634958
251	0xbdc36dfe	-0.09542464
252	0x3d1b225c	0.037874565
253	0x3d403fa4	0.046935692
254	0x374b6ca3	1.2125037e-05
255	0xbd035f9c	-0.032073602

dec.bias f4 [784]
0	0xbcbda7e5	-0.023151347
1	0xba921ad7	-0.0011146915
2	0xbdcce3c2	-0.10004379
3	0xbdf9091c	-0.121599406
4	0xbd46fc0d	-0.048580218
5	0xbdb00f2d	-0.085966446
6	0x3d1d7f51	0.038451497
7	0xbdbd2227	-0.0923503
8	0x3cc88c8c	0.02448108
9	0x3c316e8e	0.010829581
10	0x3d28dcb2	0.041226096
11	0x3ce313e2	0.027719442
12	0xbdcca014	-0.0999147
13	0xbda54a66	-0.08070831
14	0xbdc23d27	-0.0948432
15	0xbcd6be7f	-0.026213882
16	0xbcfd0903	-0.030888086
17	0xbdbecd9c	-0.093165606
18	0x3c2a2d4a	0.010386774
19	0x3c10af8d	0.008830917
20	0xbdb11d36	-0.0864815
21	0xbdd71a93	-0.105031155
22	0x3d243af7	0.040095296
23	0x3b84f5a6	0.004057604
24	0x3a9d5666	0.0012003898
25	0x3d86fa46	0.065907046
26	0xbde838df	-0.11338972
27	0xbdcaed7a	-0.09908576
28	0xbc0df80d	-0.008665097
29	0x3d78788d	0.06066184
30	0xbd5fdc8e	-0.054653697
31	0xbd987070	-0.07443321
32	0xbd44f24d	-0.04808264
33	0x3d48485c	0.048897132
34	0x3b98eb22	0.004666702
35	0x3cb646a9	0.02225049
36	0x3ca2226a	0.0197918
37	0x3a2d4bd7	0.0006610727
38	0xbd30475a	-0.043036796
39	0x3d07597f	0.033044335
40	0xbddbb9fe	-0.107288346
41	0xbca6a576	-0.02034257
42	0xbd71eb11	-0.059062067
43	0x3ce3613b	0.027756324
44	0x3d3b111d	0.045670617
45	0x3caea770	0.021320075
46	0x3d6faf46	0.058516763
47	0xbd044817	-0.032295313
48	0x3d0d614d	0.03451662
49	0xbd98a95b	-0.07454177
50	0xbdbea5ff	-0.09309005
51	0x3d0108df	0.0315026
52	0xbdedce5a	-0.11611624
53	0x3d74ba5c	0.05974804
54	0xbd91115f	-0.070833914
55	0xbc00a621	-0.007852108
56	0x3d57b8bb	0.052666407
57	0xbdac7f96	-0.084227726
58	0xbdd274b9	-0.10276169
59	0xbddae30e	-0.106878385
60	0xbda4ef91	-0.08053506
61	0xbde0b60b	-0.10972222
62	0xbdb4ac72	-0.08821954
63	0x3c5e4933	0.013567257
64	0xbdcb86b3	-0.09937801
65	0xbca8c43d	-0.020601386
66	0x3b896c5a	0.0041938247
67	0xbd622bef	-0.05521768
68	0x3bb6c5c9	0.005577777
69	0xbe64b1d7	-0.22333466
70	0xbded2a61	-0.11580349
71	0xbe173002	-0.14764407
72	0xbe951a8e	-0.29121822
73	0xbe008c5b	-0.12553541
74	0xbdf54fd4	-0.11978117
75	0xbd235569	-0.039876375
76	0xbd9818bb	-0.07426592
77	0xbd390d22	-0.04517854
78	0xbc3a979e	-0.011388687
79	0xbdab2370	-0.083563685
80	0xbd9f3b28	-0.07774955
81	0xbcc8ada0	-0.024496853
82	0x3c0c4f63	0.008563849
83	0xbdb08b68	-0.0862034
84	0x3d2424e3	0.04007424
85	0x3c085969	0.008322098
86	0xbd8a11c5	-0.067416705
87	0xbd8190a1	-0.06326414
88	0xbd75a801	-0.059974674
89	0xbc4088a6	-0.0117513295
90	0xbb164f06	-0.0022935285
91	0x3c156495	0.009118219
92	0xbd1a98ad	-0.03774326
93	0xbdf9de49	-0.12200601
94	0xbe4bc009	-0.19897474
95	0xbea55ed2	-0.32298905
96	0xbe9b2ae2	-0.30306154
97	0xbe666a59	-0.22501506
98	0xbe5d4bdf	-0.21610974
99	0xbe6c2791	-0.23061968
100	0xbe89ec59	-0.2693813
101	0xbdf873f7	-0.121314935
102	0xbe21c798	-0.15798795
103	0xbe84bfa9	-0.25927475
104	0xbe906570	-0.2820239
105	0xbe4d4a2f	-0.2004783
106	0xbd063208	-0.032762557
107	0xbdaaac41	-0.08333636
108	0xbd31bc70	-0.0433926
109	0xbd7668ba	-0.06015847
110	0xbd78d607	-0.060750987
111	0xbde867cd	-0.113479234
112	0x3d23ca47	0.03998783
113	0xbddac4ab	-0.10682043
114	0xbdb5c670	-0.088757396
115	0x3c232b8a	0.009959111
116	0x3d5bb6d4	0.053641155
117	0xbd2fa28a	-0.04287962
118	0xbde97fff	-0.114013664
119	0xbddb28de	-0.10701154
120	0xbe2d0503	-0.16896443
121	0xbe8dce6e	-0.27696556
122	0xbeb29045	-0.34875694
123	0xbe994f15	-0.29943147
124	0xbec72332	-0.3889404
125	0xbef55b01	-0.47920993
126	0xbea046b3	-0.3130394
127	0xbe98b80e	-0.29827923
128	0xbe6b9ab9	-0.23008241
129	0xbe2cbe93	-0.16869573
130	0xbec220c2	-0.37915617
131	0xbe92e02e	-0.2868666
132	0xbe5cac00	-0.21549988
133	0xbe075211	-0.132149
134	0xbe5d397c	-0.2160396
135	0xbe2f9ae5	-0.17148931
136	0xbd332a9b	-0.043741804
137	0x3d41afce	0.0472868
138	0x3d5d2afb	0.053996067
139	0x3d203271	0.039110605
140	0x3d8b7727	0.06809836
141	0x3d838abc	0.06422946
142	0x3ceadaf9	0.028668867
143	0xbd95beba	-0.07311769
144	0x3c50bdf7	0.012740604
145	0xbe01ea75	-0.12687095
146	0xbe1abdfe	-0.15111539
147	0xbe5b3a4b	-0.21408956
148	0xbe7f6877	-0.24942194
149	0xbdf42700	-0.11921501
150	0xbea6435e	-0.32473272
151	0xbe9a5336	-0.3014161
152	0xbee37006	-0.44421405
153	0xbf030fa7	-0.5119576
154	0xbea677b5	-0.32513204
155	0xbe9edd8c	-0.31028402
156	0xbe90ad2a	-0.28257114
157	0xbeaf74d3	-0.34268817
158	0xbee4d619	-0.44694594
159	0xbeba4b8d	-0.36385766
160	0xbece2b76	-0.40267533
161	0xbe2313bd	-0.15925498
162	0xbe843015	-0.25817934
163	0xbe1a1e20	-0.15050554
164	0xbe89359f	-0.26798722
165	0xbd01b2d4	-0.031664684
166	0x3d6c8296	0.057741724
167	0xbd74e146	-0.05978515
168	0xbda23941	-0.079210766
169	0x3b3919f8	0.0028244238
170	0x3d16c71d	0.036810983
171	0x3ce39825	0.02778251
172	0xbd997c80	-0.074944496
173	0xbe4055bd	-0.18782707
174	0xbe16ffe7	-0.14746056
175	0xbe0cb4a5	-0.13740785
176	0xbe85a764	-0.2610427
177	0xbe596836	-0.2123116
178	0xbe583472	-0.21113756
179	0xbea2e104	-0.31812298
180	0xbecede46	-0.40403956
181	0xbeb06956	-0.34455365
182	0xbef5e6a4	-0.48027527
183	0xbed20a82	-0.41023642
184	0xbee3a636	-0.44462746
185	0xbecb6e97	-0.3973281
186	0xbec86a4f	-0.39143607
187	0xbeeb65d2	-0.4597612
188	0xbecd0b0b	-0.40047488
189	0xbe939101	-0.28821567
190	0xbe638877	-0.22220026
191	0xbe6198cf	-0.22030948
192	0xbe42d31c	-0.19025844
193	0xbdce4525	-0.10071782
194	0xbdefbe54	-0.11706224
195	0x3d80aef0	0.06283367
196	0xbd883136	-0.06650011
197	0x3ad19d50	0.0015992317
198	0xbd265caf	-0.040615734
199	0xbd716e5c	-0.058943138
200	0xbdf569da	-0.1198308
201	0xbe68e0da	-0.22742024
202	0xbe8b857b	-0.27250275
203	0xbeb96b78	-0.36214805
204	0xbe01c56c	-0.12672967
205	0xbe763eac	-0.24047345
206	0xbe9a2a52	-0.30110413
207	0xbec0a138	-0.37623
208	0xbeb4c481	-0.3530617
209	0xbebf9e96	-0.3742568
210	0xbefcdc33	-0.4938675
211	0xbee02d43	-0.43784532
212	0xbed98d3a	-0.4249056
213	0xbed20d16	-0.4102561
214	0xbecbbb8e	-0.3979153
215	0xbe97a072	-0.29614598
216	0xbeb034ba	-0.34415227
217	0xbeb65df5	-0.3561856
218	0xbe911147	-0.28333494
219	0xbe6f855e	-0.2339072
220	0xbe98e59c	-0.29862678
221	0xbe922873	-0.28546485
222	0x3d283b72	0.041072316
223	0xbb698347	-0.0035631226
224	0xbd946f05	-0.07247738
225	0xbdd93318	-0.106054485
226	0xbe1c6003	-0.15271
227	0xbd910db5	-0.070826925
228	0xbe4898da	-0.19589558
229	0xbde18876	-0.11012356
230	0xbe6829c8	-0.22672188
231	0xbeb6387f	-0.35589978
232	0xbe889414	-0.26675475
233	0xbeac7e75	-0.3369023
234	0xbe8d8d6b	-0.27646956
235	0xbea1eb49	-0.3162482
236	0xbedb2e3a	-0.42808706
237	0xbeb5bfd4	-0.35497916
238	0xbf15b444	-0.5847819
239	0xbee92c5e	-0.45541662
240	0xbeb9e33a	-0.36306173
241	0xbeba7321	-0.3641596
242	0xbed52fdd	-0.4163808
243	0xbe941ba8	-0.2892735
244	0xbe93001e	-0.28711027
245	0xbe5c55c2	-0.21517089
246	0xbe1f4c5f	-0.15556477
247	0xbe351038	-0.17681968
248	0xbe497055	-0.19671758
249	0xbd69ed4a	-0.057111062
250	0x3d44d6b1	0.04805631
251	0xbb86deee	-0.0041159308
252	0x3c634b74	0.01387297
253	0xbdb9da78	-0.09074873
254	0xbe2ea296	-0.17054209
255	0xbe30a0b1	-0.17248799
